…
- Initial total samples: 26000, Initial classes: 26
- Min samples per class filter: 5
- Samples after filtering: 26000
- Classes after filtering (used for model output): 26
- Samples after resampling (if any): 26000

Feature Engineering & Selection:
- Number of features after engineering: 91
- Number of selected features for model: 35

Model Architecture (Neural Network):
Model: "functional"
┏━━━━━━━━━━━━━━━━━━━━━━━━━━━━━┳━━━━━━━━━━━━━━━━━━━━━┳━━━━━━━━━━━━━┓
┃ Layer (type)                ┃ Output Shape        ┃     Param # ┃
┡━━━━━━━━━━━━━━━━━━━━━━━━━━━━━╇━━━━━━━━━━━━━━━━━━━━━╇━━━━━━━━━━━━━┩
│ input_layer (InputLayer)    │ (None, 35)          │           0 │
├─────────────────────────────┼─────────────────────┼─────────────┤
│ dense (Dense)               │ (None, 256)         │       9,216 │
├─────────────────────────────┼─────────────────────┼─────────────┤
│ leaky_re_lu (LeakyReLU)     │ (None, 256)         │           0 │
├─────────────────────────────┼─────────────────────┼─────────────┤
│ batch_normalization         │ (None, 256)         │       1,024 │
│ (BatchNormalization)        │                     │             │
├─────────────────────────────┼─────────────────────┼─────────────┤
│ dropout (Dropout)           │ (None, 256)         │           0 │
├─────────────────────────────┼─────────────────────┼─────────────┤
│ dense_1 (Dense)             │ (None, 128)         │      32,896 │
├─────────────────────────────┼─────────────────────┼─────────────┤
│ leaky_re_lu_1 (LeakyReLU)   │ (None, 128)         │           0 │
├─────────────────────────────┼─────────────────────┼─────────────┤
│ batch_normalization_1       │ (None, 128)         │         512 │
│ (BatchNormalization)        │                     │             │
├─────────────────────────────┼─────────────────────┼─────────────┤
│ dropout_1 (Dropout)         │ (None, 128)         │           0 │
├─────────────────────────────┼─────────────────────┼─────────────┤
│ dense_2 (Dense)             │ (None, 64)          │       8,256 │
├─────────────────────────────┼─────────────────────┼─────────────┤
│ leaky_re_lu_2 (LeakyReLU)   │ (None, 64)          │           0 │
├─────────────────────────────┼─────────────────────┼─────────────┤
│ batch_normalization_2       │ (None, 64)          │         256 │
│ (BatchNormalization)        │                     │             │
├─────────────────────────────┼─────────────────────┼─────────────┤
│ dropout_2 (Dropout)         │ (None, 64)          │           0 │
├─────────────────────────────┼─────────────────────┼─────────────┤
│ dense_3 (Dense)             │ (None, 26)          │       1,690 │
└─────────────────────────────┴─────────────────────┴─────────────┘
 Total params: 159,760 (624.07 KB)
 Trainable params: 52,954 (206.85 KB)
 Non-trainable params: 896 (3.50 KB)
 Optimizer params: 105,910 (413.71 KB)

Training Performance (Balanced Accuracy on Test Set):
- Neural Network Balanced Accuracy: 0.3548
- Neural Network Best Validation Accuracy (raw): 0.3675
- Neural Network Best Validation Loss: 1.5962
…
